demos/chapter8/Weights_GSM/lstm.w1.npy (npy, 896 bytes, 1 tensors)

array f4 [3, 64]
-0.03524003 -0.0834086 0.17936093 -0.20913178 -0.16576631 -0.061986405 0.29517174 -0.13953315
0.09386229 0.025295649 0.048682284 -0.21800193 0.014430582 -0.25591493 -0.16908543 -0.14798824
-0.07726389 -0.106663056 0.12227628 -0.03459109 -0.30043393 0.22677743 0.35533655 -0.09019274
-0.05686248 0.03676517 -0.22323972 0.06405234 0.0050208857 0.15418015 -0.15927893 0.22506543
0.026816374 0.26191825 0.32141176 0.040642563 -0.2380749 -0.01216572 0.2847347 0.29833353
-0.15774061 -0.17002597 -0.29434612 -0.21747285 0.099415585 0.008818766 -0.20646326 0.18253808
0.39551893 -0.050501186 -0.1099212 0.14146341 -0.19703199 0.12192397 -0.028271666 -0.35918105
0.295004 -0.11115631 -0.3555793 -0.2342826 -0.2294105 -0.18056633 -0.08843083 -0.003768758
-0.042349588 0.03265989 -0.19625139 0.27757287 0.2802534 -0.19117282 0.20259461 0.25068575
0.2018836 0.016557902 -0.2676581 0.15481138 0.19228844 -0.3845023 0.11949375 0.22464159
0.208512 0.36312735 0.32590753 0.12356611 -0.1848165 0.27708262 0.00818059 0.018024014
0.18436125 -0.19798252 0.20372407 0.040581737 -0.08067031 -0.115644604 -0.015544156 0.06246722
-0.11381651 0.12778132 -0.1388164 -0.052799694 0.24347632 -0.16818927 0.23331551 -0.03421719
0.082995936 -0.21316434 -0.30447766 -0.03537819 -0.17614676 0.13720112 0.21235096 -0.18627454
-0.13373093 0.2341759 0.10772174 0.293797 0.102687374 0.24495845 0.35162058 -0.06103882
0.2341571 -0.22682278 -0.050918575 0.10224 -0.08880284 -0.44349676 0.0918742 0.2517802
0.34486866 -0.06906168 -0.14565262 -0.271668 -0.13135834 -0.114650205 0.07695089 0.027434917
0.26875025 0.07488071 -0.27833235 -0.01813551 0.10206572 0.17041829 -0.080141775 -0.14039059
0.15971537 0.2903769 -0.12255979 -0.07848258 0.24985573 0.020669498 0.15160544 -0.03896947
0.16239727 -0.047703646 0.2147071 0.037874315 0.16864645 -0.24502343 0.098245524 -0.13769317
-0.0016889645 0.060352728 -0.20316246 -0.17534703 -0.10783024 0.083776794 -0.029797932 -0.018445581
-0.23310752 0.1926125 -0.210464 -0.03675848 0.043909807 -0.018612586 -0.23537005 -0.2702555
-0.06972105 -0.008919629 -0.23856054 0.25863722 -0.16607144 -0.13110092 0.17546718 -0.021437885
-0.03786402 0.27491596 -0.11322332 -0.1935141 0.027572798 0.0015338453 -0.17661554 0.16488048
00000000: da57 10bd 21d2 aabd 64aa 373e a426 56be
00000010: a5be 29be 75e5 7dbd c020 973e c7e1 0ebe
00000020: df3a c03d d238 cf3c 1367 473d e63b 5fbe
00000030: 3f6e 6c3c 4807 83be bb24 2dbe 3b8a 17be
00000040: 883c 9ebd 2972 dabd fc6b fa3d 63af 0dbd
00000050: 7ad2 99be 5838 683e acee b53e f9b6 b8bd
00000060: a2e8 68bd 1397 163d f498 64be e02d 833d
00000070: 3e86 a43b 67e1 1d3e 041a 23be 8d77 663e
00000080: 03ae db3c 261a 863e 1590 a43e d178 263d
00000090: e8c9 73be ba52 47bc bfc8 913e 2cbf 983e
000000a0: c186 21be 4a1b 2ebe 89b4 96be 34b1 5ebe
000000b0: 669a cb3d 967c 103c 1b6b 53be 43eb 3a3e
000000c0: 7581 ca3e 55da 4ebd 5e1e e1bd c9db 103e
000000d0: c1c2 49be 46b3 f93d fb99 e7bc 94e6 b7be
000000e0: c40a 973e eba5 e3bd 7d0e b6be c7e7 6fbe
000000f0: 96ea 6abe 61e6 38be 391b b5bd 44fd 76bb
00000100: c376 2dbd 60c6 053d 20f6 48be 081e 8e3e
00000110: 607d 8f3e cfc2 43be f674 4f3e e259 803e
00000120: 93ba 4e3e 70a4 873c 7c0a 89be e086 1e3e
00000130: 43e7 443e 7cdd c4be 24b9 f43d 7208 663e
00000140: 2b84 553e d4eb b93e 5add a63e 3b10 fd3d
00000150: 8940 3dbe c6dd 8d3e e207 063c 19a7 933c
00000160: 32c9 3c3e eebb 4abe 0b9d 503e 0939 263d
00000170: 7a36 a5bd 14d7 ecbd eaac 7ebc a1dd 7f3d
00000180: a118 e9bd 1bd9 023e e325 0ebe 7e44 58bd
00000190: db51 793e cf39 2cbe 43ea 6e3e 5327 0cbd
000001a0: c6f9 a93d c147 5abe 7fe4 9bbe b9e8 10bd
000001b0: d15f 34be 737e 0c3e 8872 593e c1be 3ebe
000001c0: c3f0 08be cfcb 6f3e 379d dc3d 8f6c 963e
000001d0: c24d d23d 63d6 7a3e 9d07 b43e d703 7abd
000001e0: e1c6 6f3e 3b44 68be ff8f 50bd 3563 d13d
000001f0: 43de b5bd 0212 e3be 8a28 bc3d 56e9 803e
00000200: a092 b03e 3670 8dbd f625 15be 1118 8bbe
00000210: cd82 06be bacd eabd 6e98 9d3d 31bf e03c
00000220: a299 893e 0f5b 993d 9481 8ebe ec90 94bc
00000230: d507 d13d 2282 2e3e 5f21 a4bd 8dc2 0fbe
00000240: 6d8c 233e 48ac 943e a100 fbbd 7abb a0bd
00000250: 2eda 7f3e 1453 a93c 753e 1b3e 739e 1fbd
00000260: 784b 263e e664 43bd 2edc 5b3e 1922 1b3d
00000270: a8b1 2c3e 6ce7 7abe f334 c93d 70ff 0cbe
00000280: 3f60 ddba 6c34 773d d209 50be 2c8e 33be
00000290: 1ad6 dcbd 2b93 ab3d cb1a f4bc 301b 97bc
000002a0: bdb3 6ebe 363c 453e e083 57be 0f90 16bd
000002b0: c5da 333d 6c79 98bc d904 71be ee5e 8abe
000002c0: e9c9 8ebd a323 12bc 3749 74be 196c 843e
000002d0: a20e 2abe 523f 06be abad 333e 819e afbc
000002e0: 4d17 1bbd c9c1 8c3e a1e1 e7bd 8f28 46be
000002f0: 59e0 e13c 4f0b c93a b4da 34be 6ed6 283e
