demos/chapter8/Weights_GSM/lstm.w2.npy (npy, 4224 bytes, 1 tensors)

array f4 [16, 64]
0	0xbd9f1c16	-0.07769029
1	0xbe1b1d7e	-0.15147969
2	0xbe63a99a	-0.22232667
3	0xbe6774d7	-0.22603165
4	0x3cdd94a4	0.027048416
5	0x3d6d6df5	0.05796619
6	0xbcda7d69	-0.026671128
7	0x3eb00c76	0.34384507
8	0xbdba7183	-0.09103682
9	0x3cf38f8f	0.02973154
10	0x3e8379f7	0.2567899
11	0xbd983ce6	-0.074334905
12	0xbe475bbe	-0.1946859
13	0xbe241c5e	-0.16026446
14	0x3cf1d1e2	0.029519025
15	0xbe1a35c7	-0.15059577
16	0xbe2c04bb	-0.1679868
17	0xbd5051ea	-0.05085937
18	0xbdb3ae84	-0.087735206
19	0xbe1e3338	-0.15449226
20	0x3ead77ec	0.33880556
21	0x3c834cdd	0.016027862
22	0x3d493ea7	0.049132016
23	0x3e8609f4	0.2617947
24	0xbdd6b4a6	-0.10483675
25	0x3e151998	0.14560544
26	0x3e5d6dba	0.21623889
27	0xbcc1ea06	-0.023671161
28	0xbe9090d2	-0.2823549
29	0xbf01ed2e	-0.5075253
30	0x3eb87039	0.3602312
31	0xbcaa5437	-0.02079211
32	0xbce16de6	-0.027518224
33	0xbd4875cb	-0.04894046
34	0x3e0f6bbe	0.14005944
35	0x3d8a71a3	0.06759956
36	0xbe6aadc6	-0.22917852
37	0xbdc89f54	-0.097960144
38	0xbc809785	-0.01569725
39	0x3d2e69a0	0.0425812
40	0xbd762d9b	-0.060102087
41	0x3d8b0052	0.067871705
42	0x3eabe913	0.3357626
43	0x3e430daa	0.19048181
44	0x3c615a52	0.013754444
45	0x3e1c7cf2	0.15282038
46	0xbcc2b181	-0.023766281
47	0x3de1689d	0.110062815
48	0xbe5dd3e2	-0.21662858
49	0xbe994609	-0.29936245
50	0xbe804cac	-0.25058496
51	0xbe97fe7c	-0.29686344
52	0xbc592af2	-0.013254868
53	0xbea06ca0	-0.31332874
54	0xbead1842	-0.3380757
55	0x3e86b3ac	0.26308954
56	0xbe47bf7b	-0.19506638
57	0xbddf4a37	-0.10902827
58	0x3e07e90e	0.13272497
59	0x3d44f729	0.048087273
60	0xbe8ed726	-0.2789852
61	0xbd8b2248	-0.06793648
62	0x3da8bc29	0.08239014
63	0xbe127c63	-0.14305262
64	0x3ced4942	0.028965596
65	0x3e5644e5	0.20924719
66	0xbe3348dd	-0.17508264
67	0x3c712585	0.014718418
68	0xbe203eec	-0.15649003
69	0x3e15b1df	0.14618634
70	0xbd477aa3	-0.04870094
71	0xbe0ca51b	-0.13734858
72	0xbea07544	-0.31339467
73	0x3de3fc47	0.111321025
74	0x3d82c785	0.063857116
75	0xbe9ec06c	-0.3100618
76	0x3dfc164b	0.123089395
77	0x3c9d89ca	0.019230742
78	0xbe894c73	-0.2681614
79	0x3e735e71	0.23766495
80	0x3baadffe	0.00521469
81	0x3dccd79c	0.10002062
82	0x3e8a647f	0.27029797
83	0x3e255e77	0.16149317
84	0x3df102e2	0.11768128
85	0x3e256dfd	0.16155238
86	0x3e1e3407	0.15449534
87	0xbd15e618	-0.036596388
88	0xbe7d6970	-0.24747252
89	0x3e591001	0.21197511
90	0xbddd0df9	-0.10793681
91	0xbd668817	-0.05628213
92	0xbd1a0da4	-0.037610665
93	0x3e30c55c	0.17262787
94	0x3d8d4e4f	0.06899702
95	0xbc9312f5	-0.017953375
96	0xbe43a347	-0.19105254
97	0xbcb4d8cb	-0.022076031
98	0xbe2dd640	-0.16976261
99	0xbe021226	-0.12702236
100	0x3d495a30	0.049158275
101	0xbe5d42b3	-0.21607475
102	0xbc6783b4	-0.014130522
103	0xbe086103	-0.13318257
104	0x3d112d49	0.035443578
105	0x3dbb4326	0.09143667
106	0xbe14761e	-0.14498183
107	0xbe6d1f94	-0.23156577
108	0xbdc4b3f8	-0.09604639
109	0xbe012d31	-0.12614895
110	0x3d87852d	0.06617198
111	0xb94cf349	-0.00019545587
112	0x3e862a11	0.2620397
113	0x3db15eed	0.08660684
114	0xbdea8efc	-0.11453053
115	0x3e0f0593	0.1396697
116	0x3e3b8030	0.18310618
117	0x3e80d003	0.251587
118	0x3dfaf04c	0.12252864
119	0xbcbe8854	-0.023258366
120	0x3d853004	0.06503299
121	0x3a681b0b	0.00088541274
122	0xbe0ed916	-0.13949999
123	0xbe9bcf52	-0.3043161
124	0x3c7c03dc	0.0153817795
125	0xbb9a880e	-0.004715926
126	0x3d9e6cdd	0.07735608
127	0xbd2b6fc2	-0.041854627
128	0x3e220777	0.1582316
129	0xbe2096b3	-0.15682487
130	0x3bdbc286	0.0067065386
131	0xbe88a1e5	-0.26686016
132	0x3d8609b8	0.065448225
133	0x3d866f00	0.0656414
134	0xbe16884f	-0.14700435
135	0x3e1db5e1	0.15401413
136	0x3de05204	0.10953143
137	0x3d93ee3c	0.07223174
138	0xbdb3fcff	-0.087884896
139	0x3ea9f664	0.33195794
140	0xbe78f586	-0.2431241
141	0xbe820798	-0.2539642
142	0xbd75854d	-0.05994158
143	0x3e054c62	0.13017419
144	0xbe0c925b	-0.13727705
145	0xbe9294fa	-0.28629285
146	0x3e250535	0.16115268
147	0xbd431064	-0.047623053
148	0xbe2f2aa6	-0.17106113
149	0xbd972178	-0.073794305
150	0xbeb23163	-0.34803304
151	0x3e2a3cc0	0.16624737
152	0x3cd49c12	0.025953326
153	0xbd1dda59	-0.03853831
154	0x3d06fe1c	0.03295718
155	0x3cf89c1a	0.030347873
156	0xbb12443c	-0.0022318503
157	0xbdd790eb	-0.10525688
158	0x3d604e06	0.05476191
159	0x3e243b69	0.16038288
160	0xbdfc1a69	-0.12309725
161	0x3e19061b	0.14943735
162	0xbc42b664	-0.011884306
163	0x3e23287d	0.15933414
164	0xbd563a12	-0.052301474
165	0xbe60c0c6	-0.21948537
166	0x3d351e23	0.044218194
167	0x3dd2ec3c	0.102989644
168	0xbe0e9d6d	-0.1392724
169	0x3dfccec9	0.12344129
170	0x3e20c70f	0.15700935
171	0x3d1232bd	0.03569292
172	0xbda7eb91	-0.081992276
173	0x3d28c5d3	0.041204285
174	0x3e1bb343	0.15205102
175	0xbce5eff1	-0.028068515
176	0xbe653a9c	-0.22385639
177	0xbe89a2d2	-0.26882035
178	0xbddfe836	-0.109329626
179	0xbde1d75c	-0.11027405
180	0x3dda9479	0.1067285
181	0x3de00ebf	0.109403126
182	0xbe28cbd8	-0.1648401
183	0x3c8fa405	0.017534265
184	0x3da50530	0.0805763
185	0x3dd376ee	0.103254184
186	0x3da77518	0.08176631
187	0x3dd67b54	0.10472742
188	0xbd8fce83	-0.07021811
189	0x3e3a5be4	0.18199116
190	0x3e54c690	0.2077887
191	0xbe7d8a73	-0.24759845
192	0xbe999d28	-0.30002713
193	0x3e4c7e40	0.19970036
194	0xbd718baf	-0.058971103
195	0x3d863e33	0.06554832
196	0x3e202235	0.15638049
197	0xbe28865a	-0.16457501
198	0x3dee7899	0.11644096
199	0x3e05a8f4	0.13052732
200	0xbdc9e4ec	-0.098581165
201	0x3cd7edfc	0.026358597
202	0xbb10acfb	-0.002207576
203	0x3e17bceb	0.1481816
204	0xbd97baeb	-0.07408699
205	0xbd8193bf	-0.063270085
206	0xbdc41bc5	-0.09575609
207	0xbcb48265	-0.022034833
208	0xbde0cb08	-0.10976225
209	0xbe28a5fa	-0.16469565
210	0xbc0f9512	-0.0087635685
211	0xbdc490d1	-0.09597934
212	0xbe34b6cd	-0.17647858
213	0xbdc586da	-0.096448615
214	0xbe0bfc48	-0.13670456
215	0xbc4dfd6a	-0.012572626
216	0xbe86c41e	-0.263215
217	0x3cc7041d	0.024293954
218	0xbdb5f410	-0.08884442
219	0xbddf758e	-0.10911094
220	0xbd95c95c	-0.07313797
221	0xbe1fb412	-0.15596035
222	0xbe09529b	-0.13410418
223	0x3c532391	0.012886898
224	0x3d9c51e0	0.07632804
225	0x3cce0c3c	0.025152318
226	0x3cff790e	0.031185653
227	0xbe34b131	-0.17645718
228	0x3dbbb897	0.09166067
229	0x3d62800d	0.0552979
230	0xbceb569e	-0.028727826
231	0x3d0b76bc	0.03404878
232	0x3db32cb9	0.087487645
233	0x3e4c0ad5	0.19926007
234	0x3c8d4a96	0.01724748
235	0x3e3c7865	0.18405302
236	0xbe361a82	-0.1778355
237	0x3c9651e7	0.018349601
238	0xbbf14f9d	-0.007364227
239	0xbca8ddc6	-0.020613562
240	0xbe93107c	-0.28723514
241	0xbde25097	-0.110505275
242	0xbe1b70a5	-0.15179689
243	0xbe125c4d	-0.14293022
244	0x3e56e1e3	0.20984606
245	0xbeabd548	-0.33561158
246	0xbd7ea6c6	-0.062170766
247	0x3e204057	0.15649544
248	0xbebfcbbe	-0.3746013
249	0x3df64d98	0.120265186
250	0x3e2a73f2	0.16645792
251	0x3e233d8b	0.15941446
252	0xbdf04c88	-0.11733347
253	0xbe17c979	-0.1482295
254	0x3dfebd56	0.12438457
255	0xbd9f111b	-0.077669345
