demos/chapter8/Weights_RNN/lstm.w1.npy (npy, 640 bytes, 1 tensors)

array f4 [2, 64]
0.11564874 0.15052116 0.75933886 0.2059722 0.06322072 -0.004326413 -0.0045791077 0.1624423
0.02967774 -0.041968662 0.32794794 0.2999401 -0.1270983 0.058400065 0.28405508 0.25645208
-0.1162573 0.08847678 0.0617305 -0.23205972 0.2257305 0.0032675748 -0.13826866 0.28572404
-0.07198582 -0.102581866 0.42448306 0.4300044 -0.10930811 0.08619365 -0.09843459 -0.18341391
-0.36606228 -0.35795477 -0.82835335 -0.34707722 -0.21818773 -0.31274086 -0.42826626 0.31527257
0.32075235 -0.1700939 0.32862103 0.30271223 -0.4052441 0.02203391 0.04345774 0.26277798
0.034900796 0.055063915 0.39404973 0.0432505 -0.0223664 -0.2694304 0.07555169 0.24416387
0.20419817 0.26968473 0.28462324 0.052970953 0.47332194 -0.15157226 -0.112011135 -0.08353212
0.1344262 -0.01859536 0.09925143 -0.17213239 0.1636893 0.18093902 -0.16930613 0.014760016
0.139675 -0.10826971 0.22991592 -0.06252999 0.17278732 0.17864427 0.19697833 -0.06771244
-0.082199395 0.19142339 0.073634274 -0.009331318 0.07405616 -0.19124871 0.10407838 0.059716046
-0.12785141 -0.3069663 0.23873737 -0.054105323 0.031734105 0.1451579 0.012491379 -0.2088122
-0.23063995 -0.11168904 0.17093682 0.15424651 -0.078939706 -0.009729623 0.1581895 -0.10843331
0.17897235 0.09375231 0.04823202 0.124672815 -0.050071575 0.14982405 0.26975363 0.15422253
-0.2128548 0.18711437 0.036135726 0.2475348 -0.026268575 0.17608301 -0.20027377 -0.18583584
-0.17339526 0.11406075 -0.14514658 0.14986287 0.13221249 -0.29310203 0.17409816 0.24627252
00000000: 3fd9 ec3d 3822 1a3e 0864 423f 60ea 523e
00000010: dd79 813d 95c4 8dbb 570c 96bb 4657 263e
00000020: bb1e f33c 55e7 2bbd cbe8 a73e c091 993e
00000030: 0f26 02be e834 6f3d ab6f 913e b04d 833e
00000040: 4f18 eebd 5033 b53d 1fd9 7c3d 10a1 6dbe
00000050: e525 673e cf24 563b 4d96 0dbe 6c4a 923e
00000060: 4d6d 93bd 7116 d2bd d855 d93e 8929 dc3e
00000070: eedc dfbd 4c86 b03d 1398 c9bd dbd0 3bbe
00000080: 846c bbbe d945 b7be f70e 54bf 1bb4 b1be
00000090: 9b6c 5fbe 921f a0be b745 dbbe 686b a13e
000000a0: a739 a43e 182d 2ebe 0441 a83e 19fd 9a3e
000000b0: 287c cfbe 7580 b43c be00 323d d68a 863e
000000c0: 23f4 0e3d b38a 613d e3c0 c93e 7027 313d
000000d0: be39 b7bc c8f2 89be d8ba 9a3d 1806 7a3e
000000e0: 5319 513e 1e14 8a3e 23ba 913e 12f8 583d
000000f0: 4157 f23e c235 1bbe 1866 e5bd e312 abbd
00000100: 06a7 093e 4c55 98bc 5544 cb3d 7943 30be
00000110: 2b9e 273e 1448 393e 965e 2dbe ffd3 713c
00000120: f706 0f3e 82bc ddbd 146f 6b3e b90f 80bd
00000130: 29ef 303e 86ee 363e b0b4 493e d2ac 8abd
00000140: 2858 a8bd 7e04 443e 91cd 963d 62e2 18bc
00000150: c2aa 973d b4d6 43be 0c27 d53d d098 743d
00000160: 7beb 02be b02a 9dbe 9277 743e 8b9d 5dbd
00000170: 9ffb 013d 46a4 143e a4a8 4c3c ded2 55be
00000180: e12c 6cbe 39bd e4bd 100a 2f3e ccf2 1d3e
00000190: 24ab a1bd ff68 1fbc 6efc 213e 4912 debd
000001a0: 8744 373e 3601 c03d f08e 453d 7654 ff3d
000001b0: da17 4dbd 7a6b 193e 261d 8a3e 83ec 1d3e
000001c0: 9cf6 59be e99a 3f3e 0e03 143d c379 7d3e
000001d0: 3231 d7bc 1b4f 343e 9114 4dbe c04b 3ebe
000001e0: 878e 31be af98 e93d 4ea1 14be a775 193e
000001f0: b662 073e 7811 96be ca46 323e dd2e 7c3e
