demos/chapter8/Weights_RNN/lstm.w2.npy (npy, 4224 bytes, 1 tensors)

array f4 [16, 64]
000000 c3 39 57 3e da a7 b4 3d 2b 06 36 3e fc 37 3f bd
       0.21018128 0.08821078 0.1777579 -0.04668425
000010 fd 34 ca 3c 9a 83 75 bd 6e 4f 33 3e b8 7a 5f 3e
       0.02468347 -0.05993996 0.17510769 0.21824157
000020 95 9e a1 be af 27 e5 bd b5 97 c8 be 0b df f4 bd
       -0.315663 -0.1118921 -0.39178243 -0.119566046
000030 69 35 19 3e 54 3b 57 3c fc 1a da bc 19 28 45 be
       0.1496178 0.0131367035 -0.026624195 -0.19253577
000040 a2 ea 96 bd 88 82 3e 3e 7b 9f 7a bd a9 17 c0 bd
       -0.073689714 0.18604481 -0.06118725 -0.09379513
000050 50 e2 e0 bb ba 15 51 3d 1f e0 30 3e 20 4e 88 3d
       -0.006862916 0.05104611 0.17272995 0.06655526
000060 80 57 ae 3d 04 0f e9 3d 02 b7 55 be 7e 78 36 be
       0.08512783 0.11379817 -0.20870593 -0.17819402
000070 c4 fd 3b 3d af 89 06 3c 1b e6 bc 3a a5 5f 0b 3e
       0.045896307 0.008211537 0.0014411838 0.13610704
000080 15 b7 f1 3d 93 91 41 3e 61 fb 31 3e 2d f9 88 3d
       0.11802498 0.18903188 0.1738105 0.066881515
000090 57 ea c6 3c 77 fe 21 3d d9 6c 34 3d 48 79 1e 3d
       0.024281664 0.039549317 0.044049118 0.03868988
0000a0 ca 4e 3e bc bc d4 81 3d e7 78 8e bd 0c f3 77 be
       -0.011615464 0.06339404 -0.06956654 -0.24213809
0000b0 41 64 e3 3d 93 3d 3c 3e d0 36 24 bd 84 44 41 be
       0.11103106 0.18382864 -0.040091336 -0.18873793
0000c0 7e 21 95 bd dd 8d c2 bb c6 3f 78 bc 80 31 f0 bd
       -0.07281779 -0.0059373216 -0.0151519235 -0.117281914
0000d0 f4 97 73 3e 5f a8 5b be 30 2c 33 be d9 11 e9 3c
       0.23788434 -0.21450947 -0.17497325 0.028450893
0000e0 e5 fa 3f be d0 1d 93 be 3d a9 c2 bd 30 ca 10 be
       -0.18748052 -0.28733683 -0.09504936 -0.14139628
0000f0 e9 c2 55 be 3f ec 3e 3d 9c 72 8c be 22 a1 d7 3d
       -0.20875134 0.04661202 -0.2743119 0.105287805
000100 a3 f1 20 3e 50 32 8d bd 3f ea b3 be c1 01 5f be
       0.15717177 -0.06894362 -0.35139653 -0.21778013
000110 06 76 29 3e 9c ce c1 3d a0 3a e7 3c 9d 0f 4a be
       0.16548929 0.09463236 0.028226197 -0.19732518
000120 8c 21 7c 3c 38 e2 24 be 3d 36 18 bc c1 67 79 be
       0.015388858 -0.1610192 -0.009290275 -0.24355985
000130 2e ae a3 3c 11 e3 41 3d 5d 31 20 be 31 40 85 be
       0.019980516 0.047335688 -0.1564383 -0.26025537
000140 01 ef 75 bd c5 b8 95 bd 07 e7 92 bc 03 5d 52 bd
       -0.060042385 -0.073106326 -0.017932428 -0.051358234
000150 21 ed 50 bd 11 ea 00 3b 95 0d 6c bc ce 07 c4 3d
       -0.051007394 0.0019670764 -0.014407535 0.09571801
000160 34 cc 3b be fd c8 55 be e7 90 73 be 16 20 81 3d
       -0.18339616 -0.20877452 -0.23785745 0.06304948
000170 3c 0a 6b 3b 4c 84 e1 3d 70 cc 60 be 5a f4 23 3d
       0.0035864254 0.11011562 -0.21952987 0.040027954
000180 af d2 bc 3d d6 f3 df bd 21 db 1d 3e 2c f7 d6 3d
       0.09219872 -0.1093518 0.15415622 0.10496363
000190 3d ff 1e 3e a3 8f fc bc 2d ef 62 be 1a 3e 1d be
       0.15527053 -0.03083021 -0.22161551 -0.15355721
0001a0 ec ff 0b be b2 5d 16 bd 6a ce 1c be 58 9b 95 3d
       -0.13671845 -0.03671045 -0.15313116 0.0730502
0001b0 10 5a a7 3e 7c 12 9f bc e6 b7 49 3e b2 5d 3f 3e
       0.326859 -0.019417994 0.19699058 0.18688086
0001c0 d5 29 6e 3d fd cc 40 be 66 86 8e be a4 64 49 be
       0.058145363 -0.18828197 -0.27836913 -0.19667298
0001d0 c8 db 56 3c 4f 09 9b be f5 2f 18 3d 82 e0 ab 3d
       0.013113923 -0.3028054 0.03715511 0.08392431
0001e0 9b b7 c4 bd 23 82 3f be 4c f6 2b 3d 95 05 b4 be
       -0.096053325 -0.18701987 0.041982934 -0.3516051
0001f0 49 08 3f 3d 23 f1 f3 bd d7 90 0f 3d 5a 16 8b 3b
       0.04663876 -0.119112276 0.03505024 0.004244608
000200 23 33 69 3e 71 3e 0e 3c c8 d8 88 be 74 21 74 be
       0.22773413 0.008681879 -0.2672789 -0.23840886
000210 dc da 19 be 47 2a 62 be ba e2 92 3e 86 1d 08 3e
       -0.15024894 -0.2208644 0.28688604 0.13292512
000220 2c f0 31 3e 12 be af 3d e7 c3 d6 3d ab 14 ac bd
       0.17376775 0.08581175 0.10486584 -0.084023796
000230 4d ce 1f be d1 27 11 bf 04 2b db bd ae 3e 18 be
       -0.15606041 -0.5670138 -0.10701564 -0.1486766
000240 87 12 0f 3e ce 3f 7d 3d c8 5d 42 3d 83 5d 92 be
       0.13971911 0.061828427 0.047452718 -0.2858697
000250 18 f7 07 3e 2a f8 8c bd b0 24 8f 3e ac 49 97 3e
       0.13277853 -0.06883271 0.27957678 0.29548395
000260 22 1a cd bd a0 0e fe bc e8 8e 62 3e 57 d0 09 3d
       -0.1001475 -0.031012833 0.22124827 0.033645954
000270 a8 c5 07 3d d3 08 15 bf c7 69 c9 be b1 87 b8 bd
       0.033147484 -0.5821659 -0.39338514 -0.09010256
000280 ef f0 3b 3d ee 30 21 3e 24 22 fd bd 4c 5d ab 3d
       0.04588407 0.15741321 -0.123600274 0.08367404
000290 46 03 8b 3e 64 0f 80 be f1 03 24 bc 92 1b 5d 3e
       0.27150935 -0.25011742 -0.010010705 0.21592548
0002a0 ae f7 e6 3b 6b f3 fe bd 23 9e 83 3e 73 99 81 be
       0.0070485687 -0.12448772 0.25706586 -0.25312385
0002b0 08 56 81 3e 12 5b db be a3 1c 50 bd f0 83 85 3d
       0.2526095 -0.4284292 -0.05080856 0.06519306
0002c0 63 10 03 3e 56 91 12 be fd 8f 07 be 0e d5 97 be
       0.1279922 -0.14313254 -0.13238521 -0.29654735
0002d0 75 0e e6 be b7 3e ed be 8d f9 72 3e a9 f8 1c 3c
       -0.44932905 -0.4633691 0.23728009 0.00958077
0002e0 cd 34 f8 3c 39 c5 c5 be 76 8f b4 be 0a c1 39 be
       0.030298615 -0.3862703 -0.35265702 -0.18140045
0002f0 94 52 d2 be 36 d5 2d bf 67 92 79 be 5c 6b a2 be
       -0.41078627 -0.6790346 -0.24372254 -0.31722534
000300 96 37 4d be 24 dd 4d 3e de 7a b5 3e e5 a4 9f bd
       -0.20040736 0.2010389 0.35445303 -0.07795123
000310 cb 98 c3 3d ca 9c 86 3e eb 48 cd 3d 94 8e b1 3d
       0.09550627 0.26291496 0.100236736 0.08669773
000320 af b7 1b 3d 75 71 7f bd fd 0e 9a bc bd 14 82 3e
       0.03801697 -0.06236406 -0.018805975 0.25406447
000330 25 4a d4 bd fe 00 80 bd a8 22 fa 3c 1e 77 0e be
       -0.103657044 -0.06250189 0.030534104 -0.13912627
000340 37 5a 80 be 36 3f 96 bd 83 d2 80 be 76 18 69 3e
       -0.25068828 -0.07336275 -0.25160608 0.22763237
000350 1b 65 15 be 96 cc 19 bd c4 cd 28 be df d2 cf 3d
       -0.1458935 -0.037548624 -0.16484743 0.10147642
000360 ee bc ac be 3b 87 af bd 0c 46 81 3b 2b 34 06 3e
       -0.33737892 -0.08570715 0.003945118 0.13105838
000370 76 f9 6e 3d 22 30 57 bd 17 37 27 3d 5e 62 50 3d
       0.058343373 -0.052536137 0.040824022 0.05087506
000380 94 34 ca 3c d5 9b cf 3d 83 3e 56 3e 7b c2 8c 3e
       0.024683274 0.101371445 0.20922284 0.27492127
000390 53 8c 8f bd 85 d4 0f 3e c2 85 b6 3d 83 72 5f be
       -0.070091866 0.14045914 0.08912231 -0.21821027
0003a0 b5 5b 5b 3d 36 35 06 3e ad d8 f4 bc ba 58 68 be
       0.053554256 0.13106236 -0.029888475 -0.22690096
0003b0 3b d7 9a 3d 3e e3 b1 bd 44 af a0 bc 88 3e a0 bd
       0.07560583 -0.08685921 -0.019614823 -0.07824427
0003c0 9b 4a 34 be 8a f3 e4 bd 30 0d 86 3e 4e ae 6c 3e
       -0.17606585 -0.11179264 0.26181936 0.23113367
0003d0 79 81 8b be 4f 2b 06 3d ff 41 0c bd c4 33 52 3e
       -0.27247217 0.032756146 -0.034242626 0.2052756
0003e0 80 c6 41 bc b6 d0 7f bd 5e bd 47 be 8d d3 17 3e
       -0.011827111 -0.0624549 -0.19505832 0.14826794
0003f0 7a 4b 9d be 53 80 29 3e 91 04 2f bd e5 61 1d be
       -0.30721647 0.16552858 -0.042728964 -0.15369375
